pipeline.onnx (onnx, 3755 bytes, 6 tensors)

transform_matrix f4 [14, 14]
0	0x3e9fee1d	0.31236354
1	0xbcf34ba5	-0.029699156
2	0xbc9c726c	-0.01909753
3	0xbdca48d9	-0.09877176
4	0xbcd44fcc	-0.025916956
5	0xbd5254ce	-0.051350407
6	0xbd353bed	-0.044246603
7	0x3ad87d8b	0.0016516907
8	0xbd83abe5	-0.06429271
9	0x3de5eafb	0.112264596
10	0xbe43bfb0	-0.19116092
11	0xbd808fb0	-0.06277406
12	0xbab81959	-0.001404564
13	0x3f6913d6	0.9104589
14	0x3e21f8f0	0.15817618
15	0x3ee097f4	0.4386593
16	0x3f3aabcb	0.72918385
17	0x3da46e76	0.08028881
18	0x3efcfe50	0.49412775
19	0xbc46e80c	-0.012140285
20	0x3b43dc0f	0.0029885804
21	0x3a84cb6a	0.0010131423
22	0xbbb9ee87	-0.0056741866
23	0xbbc37708	-0.0059651174
24	0x3b32dd68	0.0027292613
25	0xbb15131f	-0.0022746993
26	0x39a51d6a	0.00031493168
27	0xbadbd887	-0.0016772904
28	0x3e9fe14b	0.31226572
29	0x3cd2f19e	0.025749978
30	0xbc94fb2f	-0.01818618
31	0xbdcd8293	-0.10034671
32	0xbd967250	-0.07346022
33	0xbd2416c2	-0.040060766
34	0xbd6ea989	-0.05826715
35	0xbb234530	-0.0024913065
36	0xbd8f0df0	-0.0698508
37	0x3e4219cb	0.18955152
38	0xbeda9e51	-0.4269891
39	0x3f49f37a	0.7888714
40	0xbc2e27e0	-0.010629624
41	0xbe40d71c	-0.18832058
42	0x3d1729ac	0.036904976
43	0x3f05bcf8	0.5224147
44	0x3c216ddf	0.0098528555
45	0xbaa3f853	-0.001250992
46	0xbef22479	-0.4729345
47	0x3e92edb9	0.28696993
48	0xbd1e532d	-0.03865354
49	0xbd679b87	-0.056544807
50	0x3ed182f3	0.4092022
51	0x3ef4aefa	0.47789747
52	0x3d069b01	0.032862667
53	0xbe06529a	-0.13117447
54	0x3c0f6695	0.008752485
55	0xbcdb415e	-0.026764568
56	0x3e9db360	0.30800915
57	0xbdbb3552	-0.091410294
58	0xbca5af04	-0.020225056
59	0xbdce5e66	-0.10076599
60	0x3cdd2174	0.02699349
61	0xbda936e3	-0.08262422
62	0xbd4d34e6	-0.050099276
63	0x3b86b610	0.004111059
64	0xbdd5cecc	-0.10439834
65	0x3e116623	0.14199118
66	0xbea9942e	-0.33120865
67	0xbedbfcfb	-0.42966446
68	0xbf32bf12	-0.698228
69	0xbe80c055	-0.25146738
70	0x3e94e445	0.29080406
71	0x3e432680	0.19057655
72	0xbc6332ae	-0.013867063
73	0xbdc4383d	-0.09581039
74	0xbe6c899a	-0.23099366
75	0x3d9bec2e	0.07613407
76	0xbe818c17	-0.25302193
77	0x3f406cef	0.7516622
78	0xbda0a003	-0.0784302
79	0xbec511bb	-0.3849009
80	0x3e2264fe	0.15858838
81	0xbbedb5e0	-0.007254347
82	0x3aa5c043	0.00126458
83	0xbd3a32e7	-0.0454587
84	0x3e9dc15f	0.30811593
85	0x3da6bb43	0.08141186
86	0xbc8da817	-0.017292066
87	0xbdddc35c	-0.108282775
88	0xbe0dd343	-0.13850121
89	0xbe0fff04	-0.14062124
90	0x3f65120c	0.8948066
91	0x3c8d2de4	0.017233796
92	0x3d9e3da8	0.07726604
93	0xbe2929d7	-0.16519867
94	0x3de0715d	0.10959122
95	0x3ba2b192	0.0049650157
96	0x3a4af71f	0.00077425124
97	0xbd0cea62	-0.034403212
98	0x3e9d45fe	0.30717462
99	0xbdcafded	-0.09911714
100	0xbcabafc6	-0.020957839
101	0xbdcc7c57	-0.099846534
102	0x3d0bdfdb	0.034149032
103	0xbdad1a02	-0.08452226
104	0xbd4c6756	-0.049903236
105	0x3bb5fa78	0.00555354
106	0xbddb1f05	-0.10699276
107	0x3e113e9b	0.14184038
108	0xbea6a11f	-0.325448
109	0xbecf752a	-0.40519077
110	0x3f3738ab	0.71570843
111	0xbe7c3e2e	-0.24633095
112	0x3e7ddb5c	0.2479071
113	0xbea348f3	-0.31891593
114	0xbcc41a66	-0.023938369
115	0xbdcb79e9	-0.09935362
116	0x3e8da7ad	0.2766699
117	0x3f57989d	0.84217244
118	0x3d9d0184	0.07666305
119	0xbc9bfc68	-0.019041255
120	0x3e2b096c	0.16702813
121	0xbd1f5bad	-0.03890579
122	0x3d805209	0.06265647
123	0x3ce0bbdf	0.027433334
124	0xbb0e3d39	-0.0021703972
125	0xbc82cb0b	-0.015965959
126	0x3e8fdb7a	0.28097135
127	0x3e6a1f63	0.22863536
128	0xbc4a5121	-0.012348444
129	0xbdbcd079	-0.092194505
130	0xbe875801	-0.2643433
131	0x3deb837c	0.11499688
132	0xbe5bb387	-0.21455203
133	0xbf2394c4	-0.63898873
134	0xbea2b1bf	-0.31776235
135	0xbee19008	-0.440552
136	0x3e2325fa	0.15932456
137	0xbc674990	-0.01411666
138	0x3b35702d	0.002768527
139	0xbd38e42c	-0.045139477
140	0x3e994bcd	0.29940644
141	0xbe1a70d7	-0.15082107
142	0xbcb33dc0	-0.02188003
143	0xbdd18a68	-0.10231477
144	0x3daa1638	0.08305019
145	0xbe1b7510	-0.15181375
146	0xbda27a51	-0.07933486
147	0x3c575aa7	0.013144172
148	0xbe920df9	-0.28526285
149	0x3f062256	0.5239614
150	0x3f3064fc	0.6890409
151	0x3d967558	0.073466
152	0xbbb5310f	-0.00552953
153	0xbd83afe9	-0.064300366
154	0x3d6ec35c	0.058291778
155	0x3f0173fd	0.5056761
156	0xbf2da3c8	-0.67828035
157	0x3cb8e04c	0.02256789
158	0x3f07762a	0.5291468
159	0xbc76b1a0	-0.015056998
160	0x3b31e0a7	0.002714196
161	0x3a9e1de8	0.0012063356
162	0xbbf6fa33	-0.0075371503
163	0xbb97c0bf	-0.0046311314
164	0x3a810aed	0.0009845175
165	0xbb3c1769	-0.0028700477
166	0xb97c54ee	-0.00024064232
167	0xba69fc68	-0.0008925856
168	0x3e99aab4	0.3001305
169	0xbdb4a17e	-0.08819865
170	0xbd8764d0	-0.06611025
171	0x3f71cb6f	0.9445104
172	0xbd969a23	-0.07353618
173	0x3c16d8f2	0.009206997
174	0x3ba29037	0.0049610394
175	0xba63c7d4	-0.00086891395
176	0x3bd80fea	0.006593694
177	0xbbdb124b	-0.0066855303
178	0x3bec3b0d	0.007209188
179	0x3b03b879	0.0020098968
180	0xba1f8e1a	-0.00060865434
181	0xbb4ef2e2	-0.0031577875
182	0x3e9665af	0.29374453
183	0xbe3686dc	-0.17824882
184	0xbcbabe2c	-0.02279576
185	0xbdd93a32	-0.10606803
186	0x3de8fd38	0.11376423
187	0xbeb717c5	-0.35760322
188	0xbe82bea5	-0.25536075
189	0xbe19f79f	-0.15035866
190	0x3f42be86	0.76071966
191	0xbe454d13	-0.19267683
192	0x3e1bbf9f	0.15209816
193	0x3d13a9c7	0.036050584
194	0xbab07db1	-0.0013465193
195	0xbd126fe8	-0.035751253

mean f4 [14]
0	0x23e41a29	2.4730889e-17
1	0x2601cec1	4.503607e-16
2	0x259fe8a8	2.7739757e-16
3	0x2225aa10	2.24517e-18
4	0x259e10c3	2.741999e-16
5	0xa446c40b	-4.310046e-17
6	0xa41aff1d	-3.3609516e-17
7	0x25be1f6c	3.2981038e-16
8	0xa5087211	-1.1834767e-16
9	0xa4584200	-4.6893438e-17
10	0xa564ddf2	-1.9851046e-16
11	0x24216db7	3.5004242e-17
12	0xa602d009	-4.538475e-16
13	0x223ba09c	2.5428252e-18

theta f4 [1, 3, 12]
0	0x3e992f2e	0.29918808
1	0xc010c114	-2.2617846
2	0xbaf89adb	-0.0018967049
3	0xba8d84b5	-0.0010796996
4	0x3ccc2e63	0.024924463
5	0xbae82cc5	-0.0017713538
6	0x3a19e443	0.00058705005
7	0x395c8e89	0.00021033933
8	0xba10e365	-0.00055270485
9	0x37be9630	2.2719702e-05
10	0xb920522e	-0.00015289403
11	0x39318c0e	0.0001693221
12	0xbffb79be	-1.9646528
13	0x3fbbb1e4	1.4663663
14	0x3ae07818	0.0017125634
15	0x3b82f9cb	0.003997063
16	0xbc7bdeff	-0.015372991
17	0x3aa765a2	0.0012771378
18	0x386a35d1	5.5840068e-05
19	0xb8da3e65	-0.00010406672
20	0x3a629f88	0.0008644988
21	0x39baa405	0.0003559889
22	0x398b1c11	0.00026533057
23	0xb881aa71	-6.1829465e-05
24	0x3fbbc6f3	1.467009
25	0xbee9bf47	-0.45653746
26	0xba48eb80	-0.0007664487
27	0xbb39eebc	-0.0028371057
28	0x3b906449	0.004406486
29	0xb9f11225	-0.0004598062
30	0xb96f4b36	-0.00022820834
31	0x378ce717	1.679691e-05
32	0xba06a70f	-0.0005136588
33	0xb997ff20	-0.00028991047
34	0xb92ace99	-0.00016289427
35	0xb6833715	-3.9105166e-06

sigma f4 [1, 3, 12]
0	0x4163a5d1	14.2279825
1	0x4046587e	3.0991511
2	0x3dfe77f4	0.12425223
3	0x3dd81aa5	0.10551957
4	0x3d90bc6e	0.0706719
5	0x3c76eb86	0.015070802
6	0x3c2b1eb5	0.010444333
7	0x3c0f9645	0.008763854
8	0x3c2c6150	0.010521248
9	0x3bc1d02d	0.005914709
10	0x3b726812	0.00369883
11	0x3b04edbb	0.00202833
12	0x3ba77bba	0.005111185
13	0x3d034677	0.032049622
14	0x3d89dacb	0.067311846
15	0x3c614119	0.013748431
16	0x3d17d2ec	0.037066385
17	0x3b2df4f5	0.002654371
18	0x3b3900b2	0.0028229174
19	0x3b59e80c	0.0033249883
20	0x3b191e82	0.0023364131
21	0x3ac2c17e	0.001485869
22	0x3acfb49f	0.0015846676
23	0x3a984922	0.0011618475
24	0x413c57f3	11.771472
25	0x403f24ab	2.986613
26	0x3dc2f658	0.095196426
27	0x3da99f90	0.08282387
28	0x3d62fdf4	0.05541797
29	0x3c5f0b62	0.013613554
30	0x3c4a71e6	0.012356257
31	0x3c1e6eb3	0.009669947
32	0x3c1688f1	0.009187923
33	0x3bc54914	0.0060206745
34	0x3b82e161	0.0039941524
35	0x3b1f90e8	0.0024347845

jointi f4 [1, 3]
0	0xbff4091e	-1.9065282
1	0xbf79c837	-0.9757113
2	0xbf3edb5f	-0.74553484

sigma_sum_log f4 [1, 3]
0	0x4100f9ab	8.060954
1	0x41a0e7d6	20.113201
2	0x41065954	8.396809
